ST Edge AI Core v2.2.0-20266 2adc00962
Created date          : 2026-04-16 19:43:12
Parameters            : generate --target stm32f7 --name network -m D:/STM32CubeIDE_1.16.0/STM32CubeIDE/workspace_1.16.0/speech_commands_yes_no_unknown_int8.tflite --compression none --verbosity 1 --workspace C:/Users/elwen/AppData/Local/Temp/mxAI_workspace9022305078950015864312223910665985 --output C:/Users/elwen/.stm32cubemx/network_output

Exec/report summary (generate)
-----------------------------------------------------------------------------------------------------------------------------------
model file         :   D:\STM32CubeIDE_1.16.0\STM32CubeIDE\workspace_1.16.0\speech_commands_yes_no_unknown_int8.tflite             
type               :   tflite                                                                                                      
c_name             :   network                                                                                                     
compression        :   none                                                                                                        
options            :   allocate-inputs, allocate-outputs                                                                           
optimization       :   balanced                                                                                                    
target/series      :   stm32f7                                                                                                     
workspace dir      :   C:\Users\elwen\AppData\Local\Temp\mxAI_workspace9022305078950015864312223910665985                          
output dir         :   C:\Users\elwen\.stm32cubemx\network_output                                                                  
model_fmt          :   ss/sa per channel                                                                                           
model_name         :   speech_commands_yes_no_unknown_int8                                                                         
model_hash         :   0x9a0ebb6d0a64c94c4a8ffcf253445a5c                                                                          
params #           :   28,995 items (28.46 KiB)                                                                                    
-----------------------------------------------------------------------------------------------------------------------------------
input 1/1          :   'serving_default_keras_tensor0', int8(1x98x13x1), 1.24 KBytes, QLinear(4.574229240,-86,int8), activations   
output 1/1         :   'nl_10', int8(1x3), 3 Bytes, QLinear(0.003906250,-128,int8), activations                                    
macc               :   472,248                                                                                                     
weights (ro)       :   29,148 B (28.46 KiB) (1 segment) / -86,832(-74.9%) vs float model                                           
activations (rw)   :   5,488 B (5.36 KiB) (1 segment) *                                                                            
ram (total)        :   5,488 B (5.36 KiB) = 5,488 + 0 + 0                                                                          
-----------------------------------------------------------------------------------------------------------------------------------
(*) 'input'/'output' buffers are allocated in the activations buffer

Model name - speech_commands_yes_no_unknown_int8
------ ----------------------------------------- --------------------- --------------- --------- ------------------------------- --- ----------------- -------------------- --------------------- 
m_id   layer (type,original)                     oshape                param/size           macc                    connected to   | c_size            c_macc               c_type                
------ ----------------------------------------- --------------------- --------------- --------- ------------------------------- --- ----------------- -------------------- --------------------- 
0      serving_default_keras_tensor0 (Input, )   [b:1,h:98,w:13,c:1]                                                               |                                        
       conv2d_0 (Conv2D, CONV_2D)                [b:1,h:98,w:13,c:8]   80/104             91,736   serving_default_keras_tensor0   | -104(-100.0%)     -91,736(-100.0%)     
       nl_0_nl (Nonlinearity, CONV_2D)           [b:1,h:98,w:13,c:8]                      10,192                        conv2d_0   |                   -10,192(-100.0%)     
------ ----------------------------------------- --------------------- --------------- --------- ------------------------------- --- ----------------- -------------------- --------------------- 
1      pool_1 (Pool, MAX_POOL_2D)                [b:1,h:49,w:6,c:8]                        9,408                         nl_0_nl   | +104(+100.0%)     +91,736(+975.1%)     Conv2D_[0]            
------ ----------------------------------------- --------------------- --------------- --------- ------------------------------- --- ----------------- -------------------- --------------------- 
2      conv2d_2 (Conv2D, CONV_2D)                [b:1,h:49,w:6,c:16]   1,168/1,216       338,704                          pool_1   | -1,216(-100.0%)   -338,704(-100.0%)    
       nl_2_nl (Nonlinearity, CONV_2D)           [b:1,h:49,w:6,c:16]                       4,704                        conv2d_2   |                   -4,704(-100.0%)      
------ ----------------------------------------- --------------------- --------------- --------- ------------------------------- --- ----------------- -------------------- --------------------- 
3      pool_3 (Pool, MAX_POOL_2D)                [b:1,h:24,w:3,c:16]                       4,608                         nl_2_nl   | +1,216(+100.0%)   +338,704(+7350.3%)   Conv2D_[1]            
------ ----------------------------------------- --------------------- --------------- --------- ------------------------------- --- ----------------- -------------------- --------------------- 
7      reshape_7 (Reshape, RESHAPE)              [b:1,c:1152]                                                             pool_3   |                                        
------ ----------------------------------------- --------------------- --------------- --------- ------------------------------- --- ----------------- -------------------- --------------------- 
8      tfl_pseudo_qconst3 (Placeholder, )        [b:24,c:1152]         27,648/27,648                                               | +96(+0.3%)        +27,672(+100.0%)     Dense_[2]             
       tfl_pseudo_qconst2 (Placeholder, )        [b:24]                24/96                                                       | -96(-100.0%)                           
       gemm_8 (Gemm, FULLY_CONNECTED)            [b:1,c:24]                               27,672                       reshape_7   |                   -27,672(-100.0%)     
                                                                                                              tfl_pseudo_qconst3   | 
                                                                                                              tfl_pseudo_qconst2   | 
       nl_8_nl (Nonlinearity, FULLY_CONNECTED)   [b:1,c:24]                                   24                          gemm_8   |                   -24(-100.0%)         
------ ----------------------------------------- --------------------- --------------- --------- ------------------------------- --- ----------------- -------------------- --------------------- 
9      tfl_pseudo_qconst1 (Placeholder, )        [b:3,c:24]            72/72                                                       | +12(+16.7%)       +75(+100.0%)         Dense_[3]             
       tfl_pseudo_qconst (Placeholder, )         [b:3]                 3/12                                                        | -12(-100.0%)                           
       gemm_9 (Gemm, FULLY_CONNECTED)            [b:1,c:3]                                    75                         nl_8_nl   |                   -75(-100.0%)         
                                                                                                              tfl_pseudo_qconst1   | 
                                                                                                               tfl_pseudo_qconst   | 
------ ----------------------------------------- --------------------- --------------- --------- ------------------------------- --- ----------------- -------------------- --------------------- 
10     nl_10 (Nonlinearity, SOFTMAX)             [b:1,c:3]                                    45                          gemm_9   |                                        Nonlinearity_[o][4]   
------ ----------------------------------------- --------------------- --------------- --------- ------------------------------- --- ----------------- -------------------- --------------------- 
model/c-model: macc=487,168/472,248 -14,920(-3.1%) weights=29,148/29,148  activations=--/5,488 io=--/0



Generated C-graph summary
------------------------------------------------------------------------------------------------------------------------
model name            : speech_commands_yes_no_unknown_int8
c-name                : network
c-node #              : 5
c-array #             : 21
activations size      : 5488 (1 segment)
weights size          : 29148 (1 segment)
macc                  : 472248
inputs                : ['serving_default_keras_tensor0_output']
outputs               : ['nl_10_output']

C-Arrays (21)
------ -------------------------------------- ------------- ------------------------- ----------- --------- 
c_id   name (*_array)                         item/size     domain/mem-pool           c-type      comment   
------ -------------------------------------- ------------- ------------------------- ----------- --------- 
0      conv2d_0_bias                          8/32          weights/weights           const s32             
1      conv2d_0_output                        2352/2352     activations/**default**   s8                    
2      conv2d_0_scratch0                      292/292       activations/**default**   s8                    
3      conv2d_0_scratch1                      208/208       activations/**default**   s8                    
4      conv2d_0_weights                       72/72         weights/weights           const s8              
5      conv2d_2_bias                          16/64         weights/weights           const s32             
6      conv2d_2_output                        1152/1152     activations/**default**   s8                    
7      conv2d_2_scratch0                      2816/2816     activations/**default**   s8                    
8      conv2d_2_scratch1                      192/192       activations/**default**   s8                    
9      conv2d_2_weights                       1152/1152     weights/weights           const s8              
10     gemm_8_bias                            24/96         weights/weights           const s32             
11     gemm_8_output                          24/24         activations/**default**   s8                    
12     gemm_8_scratch0                        1272/2544     activations/**default**   s16                   
13     gemm_8_weights                         27648/27648   weights/weights           const s8              
14     gemm_9_bias                            3/12          weights/weights           const s32             
15     gemm_9_output                          3/3           activations/**default**   s8                    
16     gemm_9_scratch0                        39/78         activations/**default**   s16                   
17     gemm_9_weights                         72/72         weights/weights           const s8              
18     nl_10_output                           3/3           activations/**default**   s8          /output   
19     nl_10_scratch0                         62/248        activations/**default**   s32                   
20     serving_default_keras_tensor0_output   1274/1274     activations/**default**   s8          /input    
------ -------------------------------------- ------------- ------------------------- ----------- --------- 

C-Layers (5)
------ ---------------- ---- --------------- -------- ------- ----------------------------------------- ---------------------- 
c_id   name (*_layer)   id   layer_type      macc     rom     tensors                                   shape (array id)       
------ ---------------- ---- --------------- -------- ------- ----------------------------------------- ---------------------- 
0      conv2d_0         1    Conv2D          101144   104     I: serving_default_keras_tensor0_output   int8(1x98x13x1) (20)   
                                                              S: conv2d_0_scratch0                                             
                                                              S: conv2d_0_scratch1                                             
                                                              W: conv2d_0_weights                       int8(8x3x3x1) (4)      
                                                              W: conv2d_0_bias                          int32(8) (0)           
                                                              O: conv2d_0_output                        int8(1x49x6x8) (1)     
------ ---------------- ---- --------------- -------- ------- ----------------------------------------- ---------------------- 
1      conv2d_2         3    Conv2D          343312   1216    I: conv2d_0_output                        int8(1x49x6x8) (1)     
                                                              S: conv2d_2_scratch0                                             
                                                              S: conv2d_2_scratch1                                             
                                                              W: conv2d_2_weights                       int8(16x3x3x8) (9)     
                                                              W: conv2d_2_bias                          int32(16) (5)          
                                                              O: conv2d_2_output                        int8(1x24x3x16) (6)    
------ ---------------- ---- --------------- -------- ------- ----------------------------------------- ---------------------- 
2      gemm_8           8    Dense           27672    27744   I: conv2d_2_output                        int8(1x24x3x16) (6)    
                                                              S: gemm_8_scratch0                                               
                                                              W: gemm_8_weights                         int8(24x1152) (13)     
                                                              W: gemm_8_bias                            int32(24) (10)         
                                                              O: gemm_8_output                          int8(1x24) (11)        
------ ---------------- ---- --------------- -------- ------- ----------------------------------------- ---------------------- 
3      gemm_9           9    Dense           75       84      I: gemm_8_output                          int8(1x24) (11)        
                                                              S: gemm_9_scratch0                                               
                                                              W: gemm_9_weights                         int8(3x24) (17)        
                                                              W: gemm_9_bias                            int32(3) (14)          
                                                              O: gemm_9_output                          int8(1x3) (15)         
------ ---------------- ---- --------------- -------- ------- ----------------------------------------- ---------------------- 
4      nl_10            10   Nonlinearity    45       0       I: gemm_9_output                          int8(1x3) (15)         
                                                              S: nl_10_scratch0                                                
                                                              O: nl_10_output                           int8(1x3) (18)         
------ ---------------- ---- --------------- -------- ------- ----------------------------------------- ---------------------- 



Number of operations per c-layer
------- ------ ---------------------- --------- ------------ 
c_id    m_id   name (type)                  #op         type 
------- ------ ---------------------- --------- ------------ 
0       1      conv2d_0 (Conv2D)        101,144   smul_s8_s8 
1       3      conv2d_2 (Conv2D)        343,312   smul_s8_s8 
2       8      gemm_8 (Dense)            27,672   smul_s8_s8 
3       9      gemm_9 (Dense)                75   smul_s8_s8 
4       10     nl_10 (Nonlinearity)          45     op_s8_s8 
------- ------ ---------------------- --------- ------------ 
total                                   472,248 

Number of operation types
---------------- --------- ----------- 
operation type           #           % 
---------------- --------- ----------- 
smul_s8_s8         472,203      100.0% 
op_s8_s8                45        0.0% 

Complexity report (model)
------ -------------------- ------------------------- ------------------------- ------ 
m_id   name                 c_macc                    c_rom                     c_id   
------ -------------------- ------------------------- ------------------------- ------ 
1      pool_1               |||||             21.4%   |                  0.4%   [0]    
3      pool_3               ||||||||||||||||  72.7%   |                  4.2%   [1]    
8      tfl_pseudo_qconst3   ||                 5.9%   ||||||||||||||||  95.2%   [2]    
9      tfl_pseudo_qconst1   |                  0.0%   |                  0.3%   [3]    
10     nl_10                |                  0.0%   |                  0.0%   [4]    
------ -------------------- ------------------------- ------------------------- ------ 
macc=472,248 weights=29,148 act=5,488 ram_io=0
 
 Requested memory size by section - "stm32f7" target
 ------------------------------ -------- -------- ------- ------- 
 module                             text   rodata    data     bss 
 ------------------------------ -------- -------- ------- ------- 
 NetworkRuntime1020_CM7_GCC.a     19,776        0       0       0 
 network.o                           682      555   2,540     148 
 network_data.o                       48       16      88       0 
 lib (toolchain)*                      0        0       0       0 
 ------------------------------ -------- -------- ------- ------- 
 RT total**                       20,506      571   2,628     148 
 ------------------------------ -------- -------- ------- ------- 
 weights                               0   29,152       0       0 
 activations                           0        0       0   5,488 
 io                                    0        0       0       0 
 ------------------------------ -------- -------- ------- ------- 
 TOTAL                            20,506   29,723   2,628   5,636 
 ------------------------------ -------- -------- ------- ------- 
 *  toolchain objects (libm/libgcc*)
 ** RT AI runtime objects (kernels+infrastructure)
  
  Summary - "stm32f7" target
  ---------------------------------------------------
               FLASH (ro)      %*   RAM (rw)       % 
  ---------------------------------------------------
  RT total         23,705   44.8%      2,776   33.6% 
  ---------------------------------------------------
  TOTAL            52,857              8,264         
  ---------------------------------------------------
  *  rt/total


Generated files (7)
------------------------------------------------------------------ 
C:\Users\elwen\.stm32cubemx\network_output\network_data_params.h   
C:\Users\elwen\.stm32cubemx\network_output\network_data_params.c   
C:\Users\elwen\.stm32cubemx\network_output\network_data.h          
C:\Users\elwen\.stm32cubemx\network_output\network_data.c          
C:\Users\elwen\.stm32cubemx\network_output\network_config.h        
C:\Users\elwen\.stm32cubemx\network_output\network.h               
C:\Users\elwen\.stm32cubemx\network_output\network.c               
